…
        "id": "f9WMr20rSt5Y",
        "outputId": "a94c1d2e-c907-4cf1-86a8-5b0a6dc3496b"
      },
      "source": [
        "from torchsummary import summary\n",
        "summary(model, (1,150,150))"
      ],
      "execution_count": 30,
      "outputs": [
        {
          "output_type": "stream",
          "text": [
            "----------------------------------------------------------------\n",
            "        Layer (type)               Output Shape         Param #\n",
            "================================================================\n",
            "            Conv2d-1         [-1, 64, 150, 150]             640\n",
            "              ReLU-2         [-1, 64, 150, 150]               0\n",
            "            Conv2d-3         [-1, 64, 150, 150]          36,928\n",
            "              ReLU-4         [-1, 64, 150, 150]               0\n",
            "         MaxPool2d-5           [-1, 64, 75, 75]               0\n",
            "            Conv2d-6          [-1, 128, 75, 75]          73,856\n",
            "              ReLU-7          [-1, 128, 75, 75]               0\n",
            "            Conv2d-8          [-1, 128, 75, 75]         147,584\n",
            "              ReLU-9          [-1, 128, 75, 75]               0\n",
            "        MaxPool2d-10          [-1, 128, 37, 37]               0\n",
            "           Conv2d-11          [-1, 256, 37, 37]         295,168\n",
            "             ReLU-12          [-1, 256, 37, 37]               0\n",
            "           Conv2d-13          [-1, 256, 37, 37]         590,080\n",
            "             ReLU-14          [-1, 256, 37, 37]               0\n",
            "        MaxPool2d-15          [-1, 256, 18, 18]               0\n",
            "           Conv2d-16          [-1, 512, 18, 18]       1,180,160\n",
            "             ReLU-17          [-1, 512, 18, 18]               0\n",
            "           Conv2d-18          [-1, 512, 18, 18]       2,359,808\n",
            "             ReLU-19          [-1, 512, 18, 18]               0\n",
            "        MaxPool2d-20            [-1, 512, 9, 9]               0\n",
            "          Flatten-21                [-1, 41472]               0\n",
            "           Linear-22                 [-1, 1024]      42,468,352\n",
            "             ReLU-23                 [-1, 1024]               0\n",
            "          Dropout-24                 [-1, 1024]               0\n",
            "           Linear-25                    [-1, 1]           1,025\n",
            "================================================================\n",
            "Total params: 47,153,601\n",
            "Trainable params: 47,153,601\n",
            "Non-trainable params: 0\n",
            "----------------------------------------------------------------\n",
            "Input size (MB): 0.09\n",
            "Forward/backward pass size (MB): 87.05\n",
            "Params size (MB): 179.88\n",
…
